…
onda\\envs\\pytorch\\lib\\site-packages\\torch\\serialization.py:656: SourceChangeWarning: source code of class 'models.yolo.Detect' has changed. you can retrieve the original source code by accessing the object's source attribute or set `torch.nn.Module.dump_patches = True` and use the patch tool to revert the changes.\n", 'ERROR 2023-11-09T04:58:47.607784   warnings.warn(msg, SourceChangeWarning)\n', 'ERROR 2023-11-09T04:58:47.607784                  from  n    params  module                                  arguments\n', 'ERROR 2023-11-09T04:58:47.607784   0                -1  1      3520  models.common.Conv                      [3, 32, 6, 2, 2]\n', 'ERROR 2023-11-09T04:58:47.607784   1                -1  1     18560  models.common.Conv                      [32, 64, 3, 2]\n', 'ERROR 2023-11-09T04:58:47.607784   2                -1  1     18816  models.common.C3                        [64, 64, 1]\n', 'ERROR 2023-11-09T04:58:47.607784   3                -1  1     73984  models.common.Conv                      [64, 128, 3, 2]\n', 'ERROR 2023-11-09T04:58:47.607784   4                -1  2    115712  models.common.C3                        [128, 128, 2]\n', 'ERROR 2023-11-09T04:58:47.607784   5                -1  1    295424  models.common.Conv                      [128, 256, 3, 2]\n', 'ERROR 2023-11-09T04:58:47.607784   6                -1  3    625152  models.common.C3                        [256, 256, 3]\n', 'ERROR 2023-11-09T04:58:47.607784   7                -1  1   1180672  models.common.Conv                      [256, 512, 3, 2]\n', 'ERROR 2023-11-09T04:58:47.607784   8                -1  1   1182720  models.common.C3                        [512, 512, 1]\n', 'ERROR 2023-11-09T04:58:47.607784   9                -1  1    656896  models.common.SPPF                      [512, 512, 5]\n', 'ERROR 2023-11-09T04:58:47.607784  10                -1  1    131584  models.common.Conv                      [512, 256, 1, 1]\n', "ERROR 2023-11-09T04:58:47.607784  11                -1  1         0  torch.nn.modules.upsampling.Upsample    [None, 2, 'nearest']\n", 'ERROR 2023-11-09T04:58:47.607784  12           [-1, 6]  1         0  models.common.Concat                    [1]\n', 'ERROR 2023-11-09T04:58:47.607784  13                -1  1    361984  models.common.C3                        [512, 256, 1, False]\n', 'ERROR 2023-11-09T04:58:47.607784  14                -1  1     33024  models.common.Conv                      [256, 128, 1, 1]\n', "ERROR 2023-11-09T04:58:47.607784  15                -1  1         0  torch.nn.modules.upsampling.Upsample    [None, 2, 'nearest']\n", 'ERROR 2023-11-09T04:58:47.607784  16           [-1, 4]  1         0  models.common.Concat                    [1]\n', 'ERROR 2023-11-09T04:58:47.607784  17                -1  1     90880  models.common.C3                        [256, 128, 1, False]\n', 'ERROR 2023-11-09T04:58:47.607784  18                -1  1    147712  models.common.Conv                      [128, 128, 3, 2]\n', 'ERROR 2023-11-09T04:58:47.607784  19          [-1, 14]  1         0  models.common.Concat                    [1]\n', 'ERROR 2023-11-09T04:58:47.607784  20                -1  1    296448  models.common.C3                        [256, 256, 1, False]\n', 'ERROR 2023-11-09T04:58:47.607784  21                -1  1    590336  models.common.Conv                      [256, 256, 3, 2]\n', 'ERROR 2023-11-09T04:58:47.607784  22          [-1, 10]  1         0  models.common.Concat                    [1]\n', 'ERROR 2023-11-09T04:58:47.607784  23                -1  1   1182720  models.common.C3                        [512, 512, 1, False]\n', 'ERROR 2023-11-09T04:58:47.607784  24      [17, 20, 23]  1    509733  models.yolo.Detect                      [4, [[10, 13, 16, 30, 33, 23], [30, 61, 62, 45, 59, 119], [116, 90, 156, 198, 373, 326]], [128, 256, 512]]\n', 'ERROR 2023-11-09T04:58:47.607784 Model Summary: 270 layers, 7515877 parameters, 7515877 gradients, 17.5 GFLOPs\n', 'ERROR 2023-11-09T04:58:47.607784 Trans
…
